pythumbs-v1.2.onnx (onnx, 176493 bytes, 10 tensors)

conv1.weight f4 [6, 1, 5, 5]
00000000: 074a b23e f948 1b3e 62ab 073e 792f 303d
00000010: 914e b63c 2896 b53e d624 893e 3370 af3e
00000020: 928e 2d3e df62 493d 475c 433e 8e50 6d3e
00000030: 2f39 333e 6734 343e 110a 7dba 2e7f 273e
00000040: 4961 51bd 18a4 4a3e dd05 833e 9cd0 c33d
00000050: 334e 8a3e 9ef7 cf3d 0d90 fb3d 83ca 963e
00000060: 4764 44bd bbad c7bd f7c4 d73d 43b0 063e
00000070: f91d 11bd c6a7 a33d 8a3c 6bbe 709a 74be
00000080: 0d6a c13d 5bf8 e53d e4a6 e23d 9f3a 1b3e
00000090: dca9 6dbd 20ce 14bd bb18 c4bd 90e0 52be
000000a0: 1ab2 0abe 1121 203e f5cd 10be 89b3 a0bd
000000b0: a3b7 c9bd 6dd2 073e 529c 20be 90dc ca3c
000000c0: 93a9 e3bc 4bc6 3bbe 0a0b 5bbe f9d4 013e
000000d0: fff5 9bbb 51f4 9cbd d47e 243d 1e74 abbd
000000e0: 2520 e3bd 8c48 f8bd 7994 e6bc 6dd3 b6bc
000000f0: 1ed4 2bbd d838 543d 5da4 c33c ec17 09bd
00000100: 6711 db3d 2999 063d 245b 14be 5d47 643d
00000110: f133 afbd cb58 1b3e 46f1 3fbe dc37 c6bb
00000120: 0d53 e4bd a234 20be 4f4a d33d 3b7d af3c
00000130: d78e 1b3e 28f0 c9bd b183 06be fbbd a2bd
00000140: 8886 04be cc45 283d c517 3d3e 2456 423e
00000150: d0bc d63c c19d 42bd 1a12 1ebe 2147 77bd
00000160: d80a 97bd 3593 0ebd 83bf 49bd 0513 abbd
00000170: a40b 22be 8c99 883d a138 903d 972e 5dbd
00000180: b22c 9f3d 563e f13c 038b 11bd bc82 cf3d
00000190: 8633 39be 8744 42be 08ee eabd 9826 d8bc
000001a0: 9d0c 6abc d0c1 84bd 3f49 913d 8e28 90bc
000001b0: 38c5 e73b 2987 9d3d 6fcf 263e aff5 31be
000001c0: 0cbb 96bd 0238 be3d d863 e63d 5c32 7a3d
000001d0: 0254 72bd b5a8 b23d 1b5a d73c 88f2 5f3e
000001e0: aa87 fbbd 7522 5b3d 443c f0bd 939b 6a3d
000001f0: 34c1 b73d 99df 6a3e 46a5 063e d51b 1a3e
00000200: 68e6 bfbd 6e99 863d e50c 723e 87c5 c23c
00000210: d218 2bbe 4947 e03d 4c75 9e3d 1205 01be
00000220: 0624 66be 14e0 55be 263d 00bd d28d 60be
00000230: f123 803e 648e 20be 0825 40bd 2a9d 39be
00000240: f67c e4bd 2ee9 4b3e 2123 ee3d 00b0 5bbe
00000250: eb57 443e a0ae e83d
0.34822103 0.15164556 0.13248971 0.043014023 0.02225426 0.35466123 0.26785916 0.3426529
0.16948918 0.049166556 0.1907817 0.2317526 0.17502283 0.17598115 -0.0009652684 0.16357109
-0.05111817 0.1978916 0.2559041 0.095612735 0.27012786 0.10154651 0.12283335 0.2945138
-0.047947194 -0.09749933 0.10535615 0.13153176 -0.035428975 0.079909846 -0.22972313 -0.23887038
0.09444056 0.11229011 0.11066988 0.15159081 -0.05802332 -0.03632939 -0.095750295 -0.20593476
-0.13544503 0.15637614 -0.14141066 -0.078467436 -0.09849479 0.13263865 -0.15684631 0.024763376
-0.02779082 -0.18337362 -0.2139093 0.12678899 -0.0047595496 -0.07663787 0.040160015 -0.08371757
-0.110901155 -0.12123212 -0.02814697 -0.022317613 -0.041950338 0.051812023 0.023882085 -0.03347008
0.106966786 0.03286091 -0.14487892 0.05573212 -0.08554829 0.1517059 -0.18744382 -0.0060491394
-0.11148653 -0.15645078 0.103169076 0.02142202 0.15191208 -0.09860259 -0.13136174 -0.07946392
-0.12941945 0.04108219 0.18466099 0.18978173 0.02621308 -0.047513727 -0.15436593 -0.06037057
-0.07375115 -0.034808356 -0.049254905 -0.08353237 -0.15824753 0.06669912 0.07042051 -0.05399951
0.07772197 0.02944867 -0.035532963 0.101323575 -0.18086061 -0.18971454 -0.11471182 -0.02638559
-0.014285234 -0.06482279 0.07094049 -0.017597463 0.007073071 0.076917954 0.16290067 -0.17378877
-0.07359895 0.092880264 0.112495124 0.061083183 -0.059162147 0.087235846 0.026288083 0.21869862
-0.12281735 0.053499658 -0.11730245 0.057277273 0.089723974 0.22936858 0.13148984 0.1504968
-0.093701184 0.06572233 0.23637731 0.023775829 -0.16708687 0.109510966 0.07737216 -0.1259959
-0.2247468 -0.2088626 -0.031308316 -0.219291 0.2502742 -0.15679318 -0.046910316 -0.1812636
-0.11156647 0.1991317 0.11627794 -0.21453857 0.19174163 0.11361432

conv1.bias f4 [6]
00000000: f79d 293e 6375 8f3e 6077 bcbd dc3d 203e
00000010: e9a3 09be c2ec 563e
0.16564165 0.28019246 -0.092024565 0.15648597 -0.13441433 0.20988753

conv2.weight f4 [16, 6, 5, 5]
00000000: 4518 533e 62f2 063e c250 c03c 0219 b0bd
00000010: ba0e d7bc 0918 263e 0367 df3d 9b2a 9cbd
00000020: bdfe 47bd 74e8 b7bd 3fd4 e43d 32a3 d53d
00000030: a2ab dbbd 9840 0f3d 1d8a b3bd d2a4 7d3e
00000040: 4783 fa3d 0e7d 98bc 9aaf 82bd 06a8 d9bd
00000050: 714e 113e 416e eb3d 7310 79bd b0c1 ea3a
00000060: fa31 44bd c69b e8bb 6e50 50bc 063e 3bbd
00000070: a26a 85bc 6bd8 b53d 141a 02bd 919b 85bd
00000080: 325f 923d 9d8d aabc 0c1f 1abd f807 93bd
00000090: a3ae 863d 5495 233d 83c2 933d 8e52 b23c
000000a0: 7967 8d3c 95cb 063b a45f ca3d d605 863b
000000b0: 80ff e63c 3a38 16bd b95b 6f3c 35eb 59bd
000000c0: 3bb0 8e3d 8645 a83c bf17 96bd c7fa 0a3d
000000d0: f62f 65bc ca69 e9bc 680b 3cbd 81de 3d3d
000000e0: 4a12 b13a 5b13 9c3d f97a 1bbd bae0 253d
000000f0: 1546 6cbc 6bde cc3c ef24 5a3d f634 a8bd
00000100: 0f8f 7ebc 8149 4b3d 1829 053d 9521 ee3c
00000110: 2b8a 72bd 75ea 2e3d ebb6 a7bd 22d9 943d
00000120: b981 9e3d cca7 963d 2b53 9bbd 59a9 9e3c
00000130: dec6 7ebc 1e4b 973c 5108 a63d 7d5a e23c
00000140: e107 533d 048a 483c 715d 4fbd e741 db3c
00000150: a261 05bd a97d fbbc a3a9 b03c 21c5 883d
00000160: e352 823c 39da fb3c f718 963d 03b0 13bd
00000170: 04a4 7bbc 1905 bf3d 5999 06bd 1b61 2fbd
00000180: 7041 8c3d fe9d 743d f119 9c3d 0899 25bd
00000190: 2dab 95bd ad5a a9bd d0be 7bbc f218 2d3d
000001a0: 6a69 d5bc 2457 d23c 666f 9ebd a16e 9b3d
000001b0: 73df bebc 83af cfbc a4ca b9bd b964 2bbd
000001c0: 3e88 c8bc 18ce f7bc 8b1f 0fbc b795 10bd
000001d0: ebb7 a7bd 060e 653d f251 783d 09e2 45bd
000001e0: ce5d 6b3d 8c2f dd3b f23e fd3c 2f14 333d
000001f0: 89d2 0f3d 27d9 8f3d a338 d43d 6986 fb3c
00000200: 3a2c 9bbc fde1 8d3d 2b43 0cbc 650a 263e
00000210: 8ed1 b03d e548 21bd 1089 72bc b2f2 ac3c
00000220: cc43 123e 31c3 c63d ecf3 403c 5ed8 b93c
00000230: 78d5 5fbd 85b2 96bb 5f33 873d 1aae b3bd
00000240: c7fb b5bd e099 c83d d737 703d 2b97 1f3d
00000250: 1fce c1bc 9e7b 413a f64a dd3b 802b 8abd
00000260: 1d31 77bd 6bc6 573d 42cc 323e dea4 9abd
00000270: 2f6e f1bd 1c74 c5bd 0281 47bb f83d c73d
00000280: 66fa 7dbd 1916 453d 93a0 b3bd dce3 0cbd
00000290: 0f80 963d 3e6a 3dbd 4ebe 3d3c 8b71 163d
000002a0: 4d62 c03d 8278 dabc 3623 bebc 4a5f 9fbc
000002b0: d743 0d3a 8643 853c 4f75 d8bc 0c8d b03d
000002c0: 9d9f 5b3d 2683 973d 3f5f 9ebc d48f 4ebd
000002d0: 7dd9 f43c 6da8 dbbc 2712 273d da36 7e3d
000002e0: 8b8b 8a3d 4ee1 ba3d e8bd 7d3d 8f31 7e3c
000002f0: 899b f33d c26e 9d3b 316b 71bc 446c cd3b
00000300: 2c63 56bd a435 89bc e056 e6bc fa35 223d
00000310: e122 04bd e6f4 743c 5e0b 683d aff0 d23d
00000320: e999 15bd 7c7b 093d c87a 41bd a12c 913d
00000330: 262a 90bd d6c8 06bd a329 853c 2b2e 713d
00000340: 54fb 753d b708 6fbd 7203 803d 5af1 463d
00000350: 3c48 333d 102b a43d a95d 4dbd cd84 02bd
00000360: 489e a6bd 4d9f 563d a782 2b3d dd95 7abc
00000370: f869 2b3d 1a62 94bb 1b6f 9bbd 6779 d13c
00000380: fc5f e8bc dbe1 463d fef2 46bc 70d7 32bd
00000390: 132d c63d f1fb 893d ea65 9c3d 25a3 8cbd
000003a0: 8192 af3d 5059 0ebd 7b20 b93d 93fa 8d3c
000003b0: 443e 95bd ad86 953c 0ad0 333d 9ffe 16bc
000003c0: 9fc4 82bd 3554 32bd d1bf 4fbc 029a ec3c
000003d0: ec0a 11bd 3e2c 92bd 4e04 15bd b357 823d
000003e0: 609b ab3b e7d4 143d 34b3 9b3c 056e 8a3d
000003f0: 5857 3a3d 025f 093d c1a7 4dbc 7a6b 17bc
0.20614727 0.13178399 0.023476008 -0.0859852 -0.02625214 0.16220106 0.1090832 -0.07625314
-0.04882692 -0.08979884 0.11173295 0.10431518 -0.10726096 0.03497371 -0.087665774 0.24769905
0.122320704 -0.018614318 -0.063811496 -0.10627751 0.1419008 0.11495639 -0.060806703 0.0017910507
-0.047899224 -0.0070986478 -0.012714488 -0.045713447 -0.016286198 0.08879169 -0.03176315 -0.065238126
0.07147063 -0.02081948 -0.037627265 -0.07179254 0.06576278 0.039937332 0.072148345 0.02176788
0.017261254 0.0020568122 0.09881523 0.004090051 0.028198004 -0.036674716 0.014609271 -0.053202827
0.06967207 0.020540964 -0.07328748 0.033930566 -0.013988486 -0.028492827 -0.045909315 0.046354774
0.0013509479 0.07620879 -0.037959073 0.04049752 -0.014421006 0.0250084 0.05325788 -0.082132265
-0.0155370375 0.049630646 0.032509893 0.029068748 -0.0592138 0.042704064 -0.08189186 0.07267977
0.077395864 0.073562235 -0.075842224 0.01936786 -0.015550343 0.018468436 0.08107055 0.027631039
0.051521186 0.012239937 -0.050626222 0.026764823 -0.032563813 -0.030699568 0.021565264 0.06678224
0.015908664 0.030743705 0.073289804 -0.03605653 -0.015358929 0.09327144 -0.032861087 -0.042817216
0.06848419 0.059720986 0.076221354 -0.040429145 -0.0730804 -0.08269248 -0.015365317 0.042260118
-0.026051242 0.025676318 -0.07736091 0.0758946 -0.023299908 -0.025352245 -0.09071854 -0.041844103
-0.024479028 -0.03024964 -0.008735548 -0.03529903 -0.081893764 0.055921577 0.060625024 -0.048311267
0.057462506 0.006750053 0.030913804 0.04372042 0.03511289 0.070238404 0.10362365 0.03070374
-0.018941987 0.069278695 -0.008560936 0.16214903 0.086337194 -0.03937616 -0.014803186 0.02111182
0.14283675 0.097051986 0.0117769055 0.02268618 -0.05464694 -0.004598918 0.06601595 -0.087734416
-0.08885913 0.09794974 0.058647003 0.038962524 -0.023657857 0.0007380786 0.006753321 -0.06746578
-0.060349572 0.05267946 0.1746073 -0.07550977 -0.11788594 -0.09641287 -0.0030441885 0.097286165
-0.062006377 0.048116777 -0.087708615 -0.03439699 0.07348644 -0.0462439 0.011581017 0.036729377
0.093937494 -0.02666879 -0.02321015 -0.019454617 0.0005388832 0.01626755 -0.026423125 0.086206526
0.053619016 0.073980615 -0.019332526 -0.050430134 0.029888863 -0.02681371 0.040788796 0.06206403
0.06764897 0.09125005 0.061948687 0.015514745 0.118949 0.004804463 -0.014735029 0.00626901
-0.05234067 -0.01674921 -0.028117597 0.039602257 -0.032259826 0.014950966 0.056651466 0.10299813
-0.036523733 0.03356503 -0.047236234 0.070885904 -0.07039289 -0.032906376 0.016255205 0.05888192
0.06005414 -0.05835792 0.06250657 0.048570015 0.04377006 0.08016026 -0.05013815 -0.03186493
-0.081356585 0.052398015 0.041872647 -0.015294519 0.041849107 -0.004528296 -0.07589551 0.025570584
-0.028366081 0.048555236 -0.012142895 -0.04366249 0.09676566 0.06737507 0.07636626 -0.06867055
0.08572865 -0.034753144 0.09039398 0.017331397 -0.07287267 0.018252695 0.043899573 -0.00921598
-0.06385159 -0.043537337 -0.01268001 0.02888203 -0.035410807 -0.07137345 -0.03638106 0.063643835
0.005237028 0.036335852 0.01900635 0.06759266 0.045493454 0.033537872 -0.012552203 -0.009241933

conv2.bias f4 [16]
00000000: 8af5 193c 5410 e73d 9369 aabd 7c81 5b3d
00000010: 87f0 bcbd 4f5b 94bd 9875 f43d 8b5d ddbc
00000020: 8559 a13d 478a 32bd 38c9 64bd 555f 8abd
00000030: f400 b33d 46c1 5fbd f09b 4a3c 6330 2fbd
0.00939692 0.11282411 -0.08320918 0.053590283 -0.092255645 -0.07243978 0.11936492 -0.027022144
0.078784026 -0.043588903 -0.05585596 -0.067564644 0.08740416 -0.05462768 0.01236628 -0.042770755

fc1.weight f4 [120, 256]
00000000: ad47 fcbd 7dff d33c 53a9 5bbd f7d8 993c
00000010: 999b 9ebd b18d c03c a6e7 c5bb 26b0 ac3d
00000020: 00fd b9bd 6763 dfbc bf6e b73d b3d0 e43b
00000030: 25c6 b0bd 43f1 2e3b adcc 9e3d 5c54 10bd
00000040: 982a 7fbd ec14 f9bc 91f5 afbd 0e4a b4bd
00000050: 9e45 563d 6eef 55bd 88e5 81bd dced 8bbb
00000060: 8db7 943d 57df 4f3d df86 94bd f081 69bd
00000070: 5f6a 043c bc0c eebb 9dd0 24bc 9059 bdbc
00000080: 2b98 533c 0498 9b3d 603c 03bd a484 b7bc
00000090: 981c dcbc 33de 873d 02e6 3f3d 1bb6 923d
000000a0: 9cbe 09bd b635 ac3c 5ce7 e43b 2e98 c9bc
000000b0: 8cdc 0e3d 01b8 48bd 6207 913d a422 57bd
000000c0: 01a2 b43d e6df 8e3b 68de dfbc 67fc 92bd
000000d0: 592d 7a3d 6b11 de3c 3a71 c3bc f853 b9bd
000000e0: 3321 35bc 814e 70bd 4b84 c2bc 7d68 95bc
000000f0: f1bb acbc 857f e03c 888b 03bd c3e7 46bc
00000100: 84ca f53b b992 b83d dd84 cc3d 53a7 1d3e
00000110: 058e 04bd a6b9 d939 e81e 9e3d 2bd8 ad3d
00000120: ee14 bc3c 333c f5bc b2b3 fe3c bb98 9b3c
00000130: ccca 27bd 6b23 17bc c21d d6bb d8c5 52bd
00000140: 309c c0bb 22e2 04bd d222 36bd f53d 8bbd
00000150: 9ff2 b5bc 27c6 94bc 022a 863c 5456 e23c
00000160: ec95 2fbc ebb0 42bd 2195 813a 57a5 88bd
00000170: 356a 343d 1504 7c3d ca81 00bd 9637 0f3d
00000180: 7653 51bd ad91 ab3b 316b 84bd c899 adbd
00000190: 993f 70bd 8cb5 88bd 199e d7bc 0c28 cfbc
000001a0: 8343 ec3b 8931 23bd 1bef 4ebd a570 57bd
000001b0: c989 bb3c 40f6 fbbc 6b5c 2abd 8128 8fbc
000001c0: a690 ae3c 7ab8 253d 27bd 18bc e1c7 993c
000001d0: d567 6fbd 2b1f 023d 89e7 473d f046 05bd
000001e0: b9df 273d cce9 2d3d e77b 83bd 7929 ba3c
000001f0: cad5 36bd a588 5b3d a722 553d 3d95 5dbd
00000200: ce86 7c3c fe1e 50bd 6f6e b6bc 159b 24bc
00000210: f216 8fbc 9de4 78bc e87b 35bd 62ed c73c
00000220: a76c af3c cd17 4fbd 6e91 943c 9514 18bd
00000230: fc37 a9bc 5765 dbbc 33c3 5e3d 9a56 4f3c
00000240: bee4 85bb 9e5a 8d3d 7f19 943d 7a77 563c
00000250: e987 683c 2469 de3c 03bc a33d f87e fcbb
00000260: c091 9fbd 4d0f 3d3c 564f 81bc 8a24 21bb
00000270: 2f9a aa3c b8f0 3f3d b428 29bd fa30 643c
00000280: 97ca cfbb 0b17 b9bc 7a4c 8ebd 2644 71bc
00000290: 9a37 3fbc a922 293d df95 71bd 0b8f 85bd
000002a0: c50f ce3c 6cc3 9cbb a13e ac3c 8ce7 fd3c
000002b0: c888 883d fb73 5c3a 2fd7 8d3c 3ea7 23bd
000002c0: 3cda 15bc e67b 6dbc 1cb1 03bd e3b1 013d
000002d0: c8ce 2f3d a3de 0dbd b83b 50bd 28c3 e03c
000002e0: 09e5 b63d f51e 25bb c40d fd3b db2c 88bd
000002f0: 62c3 183b 2154 fabc c514 453d 21fa c43c
00000300: 138f e9bb cf4f 36bd ed42 26bc 542e b7bc
00000310: d316 9cbc d241 043d 1854 803d d3f9 79bd
00000320: ac55 6c3d d862 303d 6ae3 403d 9fe6 60bd
00000330: f3b3 373d d25c 50bd 230f 113d 1964 7cbd
00000340: d3b3 163d dd6d 61bd e2f8 6cbc 8bf7 4cbc
00000350: fc89 11bd 33eb ebba 62d5 8c3c e38e 8b3c
00000360: 7fcf 17bb 87f9 9b3c 0c00 1bbc 836e f53b
00000370: 6df4 3dbd 16fa 70bd 2799 343d 023c 5bbd
00000380: a4cd 653d 3aa5 d0bc c20a 85bd 2ead 06bc
00000390: a5aa 323d dedb b33c 8439 f5bc 3c70 3a3d
000003a0: 6536 e0bb 2f65 b23c 7044 6dbd 70c6 803c
000003b0: df78 f73c ef39 59bd ebc2 0dbd 573c 49bd
000003c0: a382 26bb 4304 1dbd 119d 99bd da76 7abc
000003d0: 1395 bbbc 8ba6 80bd 1cae 1abd 76b0 3abd
000003e0: 42fa 833b a90c 8d3c 0eac 62bd 8b4a 08bd
000003f0: c70c 953d 35e8 5f3d 7af5 6bbd 0d20 453d
-0.123183586 0.025878662 -0.053628277 0.018780215 -0.07744522 0.023505064 -0.0060395775 0.08432035
-0.09081459 -0.027269078 0.0895667 0.0069828867 -0.08631543 0.0026694096 0.077538826 -0.0352367
-0.06229648 -0.030405484 -0.0859176 -0.08803187 0.052312486 -0.05223029 -0.06342608 -0.0042702984
0.07261572 0.050750103 -0.07252287 -0.057008684 0.0080820015 -0.0072647016 -0.010059503 -0.023113996
0.012914698 0.07597354 -0.03204 -0.022402115 -0.026869103 0.06634178 0.046850212 0.0716364
-0.033629045 0.021021705 0.006985588 -0.024608698 0.0348783 -0.049003605 0.07081486 -0.05252327
0.08819962 0.004360187 -0.027327731 -0.07177048 0.061078403 0.027107915 -0.023857702 -0.09049219
-0.011055279 -0.058668617 -0.023744723 -0.0182383 -0.021085711 0.027404556 -0.03211549 -0.012140217
0.0075009484 0.0901236 0.09986279 0.1539586 -0.032362003 0.00041527784 0.07720739 0.084884964
0.022959199 -0.029935932 0.031091545 0.018993726 -0.040964887 -0.009224753 -0.006534309 -0.05145821
-0.005877994 -0.03244222 -0.0444668 -0.06798927 -0.022210417 -0.018160893 0.016377453 0.027629055
-0.0107168965 -0.047532003 0.0009886363 -0.06672161 0.0440466 0.06152733 -0.031373776 0.03496512
-0.051104985 0.0052358718 -0.06465758 -0.08476597 -0.0586544 -0.06675252 -0.026320504 -0.02528765
0.0072101965 -0.039842162 -0.050520997 -0.05259766 0.02289285 -0.03075707 -0.041592043 -0.017475368
0.021309208 0.040459134 -0.009322441 0.018772068 -0.05844863 0.031768005 0.048804794 -0.032538354
0.040984843 0.042459294 -0.06420117 0.022724854 -0.04463748 0.05359711 0.052035 -0.054097403
0.015412999 -0.050810806 -0.022269456 -0.01004674 -0.017466996 -0.015191224 -0.04430762 0.024405185
0.021414114 -0.050559808 0.018135753 -0.037129004 -0.020656578 -0.026781721 0.054385375 0.012654925
-0.004086106 0.069020495 0.072314255 0.013090009 0.01419256 0.027149744 0.07994845 -0.0077055655
-0.077914715 0.0115392925 -0.0157849 -0.002458843 0.020825474 0.046860427 -0.041298583 0.013927693
-0.0063412893 -0.022593996 -0.069481805 -0.0147257205 -0.011670971 0.04129282 -0.05898082 -0.06521424
0.025154004 -0.0047840383 0.021025958 0.0309942 0.06666714 0.00084096164 0.017314522 -0.039954416
-0.009146269 -0.014494872 -0.032151327 0.031663787 0.04292181 -0.03463615 -0.050838202 0.027436808
0.08930404 -0.0025195454 0.0077225883 -0.066491805 0.0023309817 -0.030557694 0.04811551 0.024045052
-0.0071276515 -0.044509705 -0.010147792 -0.022360958 -0.019053852 0.032289334 0.062660396 -0.061029267
0.05769889 0.043063015 0.04709188 -0.054907437 0.044849347 -0.05086977 0.035414826 -0.061618898
0.036792587 -0.055036414 -0.014463635 -0.012510191 -0.035531983 -0.0017999172 0.017191593 0.017035907
-0.0023164449 0.019039882 -0.00946046 0.0074899807 -0.04637568 -0.05883225 0.04409137 -0.053524025
0.056104317 -0.025469411 -0.064961925 -0.00822 0.04361977 0.021955427 -0.029934652 0.04551719
-0.006842422 0.021776764 -0.057926595 0.015719622 0.030209003 -0.053033765 -0.034609716 -0.04912981
-0.0025407455 -0.038334142 -0.07500661 -0.0152871255 -0.022898233 -0.062817656 -0.0377637 -0.045578443
0.004027636 0.01721795 -0.055339865 -0.033274215 0.07277828 0.05466481 -0.05760715 0.04812627

fc1.bias f4 [120]
00000000: f620 f93c a606 243d acdd 7b3c 7869 0b3d
00000010: 68d0 0f3d 9732 1b3d 9609 243d c0c5 2ebc
00000020: 36e4 2bbc 674d 8bbc 40d4 893c 354c 653c
00000030: d18e afbc 82dc 3d3d ad2b 7b3d 4c8d dbbc
00000040: a9f0 39bc 0ff7 4abc 234f 85bc f1cc eaba
00000050: 035d 03bd 61d5 e7bc b010 833c 9d4e 773b
00000060: 6e9e 0a3d 0f29 443c 4280 61bc cf87 9bba
00000070: e8db 513d 4292 6e3d 7bd6 0b3d c8b5 ac3c
00000080: abfa 4abd c57e 5bbd 93dd ddba 30f3 58bd
00000090: 3d57 13bd 63c7 e33c 02f1 153d 2b50 b2bc
000000a0: faae 953d 2c0e 83bc 510f aebc 09d2 71bd
000000b0: 200d 673c 549d 48bd c7c8 b43c e5fc 393d
000000c0: c3eb 8b3c 2254 e7bc aa08 32bd bfdb a1bc
000000d0: e460 003d 0765 2cbd 7050 a3bc c13a 7b3c
000000e0: a60e a33d 4153 79bd d12e 6fbd 8101 083d
000000f0: fb40 4b3d 2392 3a3d 04ff 2f3d d924 d43d
00000100: 4daa 113b 0375 70bd 606f 50bd 2efe a8bc
00000110: 3f4e 5d3d bec1 263d b4e6 1dbd db96 c0bc
00000120: 2043 edbc 87f9 6b3d e3f1 d9bc 8c63 71bc
00000130: 3859 e43c 8184 5f3d dd2e bd3c 7fb7 5e3d
00000140: 1961 8bbc 31ca 32bd c7b4 eb3c 197a 4cbd
00000150: e19c 0b3d 6c0a dc3c 18e8 583d 756c f6bb
00000160: 0d4a 123d 8b96 06bd 5e2b 56bd 294a 473d
00000170: 0029 d13b 10ec f1bb ac28 303d e57e 3bbd
00000180: 389f 1dbd baf4 5abd ae11 3bbd e9ed 66bd
00000190: ecae 6e3c c124 b6bc 6ba1 5ebd 5c86 96bc
000001a0: b8ae 263d 516c 393d 7675 fdbc 1d86 2e3c
000001b0: 3795 1ebd 0506 4b3b 1c5b 9abc 13ce 4abd
000001c0: b01f 93bb 064b 693d 577e 61bd c3d1 24bb
000001d0: c107 043a 74ca 323d 09f2 7f3d 18ed b1bc
0.030411225 0.040045403 0.015372675 0.03403613 0.03511086 0.037890043 0.040048204 -0.010667264
-0.010491421 -0.017004682 0.016824841 0.01399522 -0.021430405 0.04635287 0.06132095 -0.026800774
-0.011348882 -0.012388005 -0.016273087 -0.001791386 -0.032071125 -0.02829999 0.015999168 0.0037736066
0.033842497 0.01197268 -0.013763489 -0.0011866036 0.05123511 0.05824495 0.03414009 0.021082774
-0.04955546 -0.053587694 -0.0016926996 -0.052966297 -0.03597187 0.027805036 0.036606796 -0.021766743
0.07308765 -0.015997969 -0.021247538 -0.059038196 0.01410225 -0.048978165 0.022068394 0.045407195
0.017080193 -0.02823836 -0.043465294 -0.019758103 0.031342402 -0.042088535 -0.019935817 0.015333832
0.07961778 -0.060870413 -0.058394257 0.03320456 0.049622517 0.045549523 0.04296781 0.10358591
0.0022226751 -0.05870534 -0.050887465 -0.020629015 0.0540297 0.04071211 -0.038550094 -0.023509433
-0.028962672 0.057611015 -0.026604598 -0.0147332065 0.027874574 0.054569725 0.023093635 0.054374214
-0.017014073 -0.043649856 0.028772725 -0.04992113 0.03408516 0.026860438 0.052955717 -0.0075202533
0.03571515 -0.032858413 -0.052287452 0.04865471 0.0063830614 -0.007382877 0.043007538 -0.045775313
-0.03848192 -0.053456046 -0.045671158 -0.056379233 0.014568072 -0.022234323 -0.05435316 -0.018374614
0.04069397 0.045269314 -0.030939799 0.010652092 -0.03871652 0.003097893 -0.018842272 -0.049512934
-0.0044898614 0.056956314 -0.055052128 -0.0025149442 0.0005036556 0.043650106 0.062486682 -0.0217195

fc2.weight f4 [84, 120]
00000000: d2d6 a9bd 4d43 8d3d 642b b13d c202 c83c
00000010: eade 983d e624 97ba 5a14 b33d 758d 52bd
00000020: 4f9a 3fbb cbc9 e33c 807e 0c3d 5cf4 903d
00000030: 003c abba edc0 26bc 493c 92bd 2a36 1d3d
00000040: a0e7 8c3d b48c 5abd 85a8 84bd e97d 873d
00000050: b9e9 5c3d 3107 b23c 5562 403d 3b27 92bb
00000060: 99dc bbbd a5fb 783d 928a 053d bf31 86bc
00000070: 816d e9bc 61f7 35bd ba2c 4dbd b1b6 253d
00000080: 31b5 e53c 2adf 8cbd 15e8 ae3c 6b15 7b3d
00000090: 55ea dd3c de21 9b3d e0bf a63d e900 8bbc
000000a0: 2eec 15bd fc85 0cbd 6427 afbd af77 f83c
000000b0: 9ea6 6ebd 0c57 d93c 3d18 b53d 1e8b 6bbd
000000c0: 761c ac3d 65ac 853d fa69 ad3d 8aba 83bd
000000d0: 5e04 a6bd cbbc 913d 74a8 833c 046a 93bc
000000e0: 2086 a7bd eb6a 3d3d 2605 5f3d 28a4 68bd
000000f0: 3c46 773c 685f 8d3d bfab 98bd 7613 473d
00000100: 1519 b63c bf0e 323d d82d a8bd 9a03 e5bc
00000110: 3919 8abd 8ab3 093d e3c5 3cbd 04a9 1b3d
00000120: 5477 bf3c 5940 af3d 1a76 ddba 9886 4a3c
00000130: 045c 233c de17 48bd bdb3 af3d addd a83c
00000140: 0f3f 323d e905 ec39 6ebd f5bb 39b7 7e3d
00000150: 2671 9cbd 8667 bcbc b693 0ebd 05bf 6e3d
00000160: c664 893c 9c6c 573d 5677 86bd fc9f 813d
00000170: ae5f 02bd 9073 87bc db19 cebc 2ae9 463d
00000180: c03c 9fbc a866 83bd a6c5 a73d bca4 55bd
00000190: 1e4b b2bd 7d98 02bd 121d 75bd 7d9a 16bd
000001a0: 4ca6 0d3d 4b99 36bd 045b bbbc b6a6 04bb
000001b0: be8c 813c 6cc6 3e3d d4eb 8dbd 8d48 87bd
000001c0: ce6f 943d bf3e 8d3b 7254 803b c2f6 b4bd
000001d0: 7f5f a23d bbe0 383c 8f7d f33c f700 a3bd
000001e0: 4dd1 a2bd 84c7 aabd 5a8f b0bd 40a3 94bd
000001f0: 66fe 793d e734 b2bd de3b 51bd 6bc0 83bd
00000200: 2155 74bc ce56 87bd d7ad f7bc e4f0 983d
00000210: c072 0e3d 2ec6 62bd 81a6 4abb 72af 763d
00000220: b4e4 6a3d 981d 9f3c 8685 25bd 884c ac3d
00000230: 8e97 acbd bb2b acbd ede1 ebbc 17ed 18bd
00000240: 1645 f73b 2827 16bd e332 6a3d c9a6 b83c
00000250: cde3 663d 5f7d 5ebd fc63 ce3c 0234 913d
00000260: 9c0c 8b3d cad3 573d 2282 543d bfcb 433d
00000270: 6811 833d 810f 923c 57a2 5dbd d3b5 32bd
00000280: 41d1 7ebd 3d98 96bd c57a 913d 1254 93bd
00000290: 0e0a f1bc a087 7d3c 2965 b2bd 7c14 aabd
000002a0: 4adf 8d3b 8408 b93d 099b a83d ec3a 023d
000002b0: 3868 763d 9382 903a 6f46 20bd 18e8 0fbc
000002c0: 69f2 493d 8a3a 37bd b833 9a3c 123f aebd
000002d0: 647f acbb e516 083c c156 3a3b 8b81 a73c
000002e0: a039 4c3d 3f47 4b3d e86f a33d cd03 5f3d
000002f0: b3b5 42bd 64c0 9d3d 68fc ba3d 3f8c e3ba
00000300: b018 97bb 5031 8dbd 707d 6dbc f2c6 543d
00000310: c22f 8f3d 00c2 2abc 04c5 7b3d 81e6 47bd
00000320: 3eff 4abd 1689 5f3d fec2 a3bd e7a0 43bd
00000330: c0c4 8fbc efb1 623d a1c4 0b3d 7e41 60bd
00000340: 968a 15bd 441f 513a 38ea f63c 5fb5 e03c
00000350: 1425 cfbc 9c9e 863d 034e 7f3d 1c85 513c
00000360: 9bd3 acbd 4112 6e3d 520f 96bd a59d 823c
00000370: 5781 b13d 452e 003c 5d03 84bd 58f7 823d
00000380: dbc3 5dbd 550a d0bc ad3f b1bd 7c21 183d
00000390: 8cd1 b4bc 8519 6cbd cc08 5b3d ac7c 5d3d
000003a0: 61f9 b9bd 2371 b03d 3689 5ebc 478e 64bd
000003b0: 983e 9dbb 2ae0 ebbc 0224 c43c 06cc ad3d
000003c0: f696 16bd fadf 23bd 45d6 68bd 8fd0 54bd
000003d0: c496 363d cd62 96bd f43f 47bd dce6 cc3c
000003e0: 08e1 04bc b8ec 4b3c e702 92bd eca3 b13c
000003f0: 7cbc 8dbd 3010 94bc 3596 a7bd 6454 323d
-0.08292927 0.06897602 0.08650854 0.024415378 0.074643925 -0.0011531382 0.08744116 -0.051404435
-0.0029236262 0.027806183 0.034300327 0.07077858 -0.0013064146 -0.010177833 -0.07140405 0.038381733
0.068801165 -0.05335684 -0.06477455 0.06615812 0.053933833 0.021731945 0.046968777 -0.004460243
-0.09172935 0.060786862 0.032602854 -0.016381143 -0.028494598 -0.044425372 -0.050091483 0.04045743
0.0280405 -0.06878503 0.0213509 0.061299723 0.027089277 0.07574819 0.08142066 -0.016968207
-0.03660219 -0.034307465 -0.08552435 0.030330507 -0.058264367 0.026530765 0.08842514 -0.05750572
0.08403866 0.06527022 0.08467479 -0.06432064 -0.08106302 0.071160875 0.016071536 -0.017994888
-0.08179879 0.046244543 0.05444827 -0.056797177 0.015092429 0.06902963 -0.07454633 0.048602544
0.022228757 0.043471094 -0.08211869 -0.027955819 -0.06743092 0.033618487 -0.046087157 0.038002983
0.02337233 0.08557195 -0.0016896159 0.012361191 0.009970669 -0.048850887 0.08579204 0.020613516
0.04351717 0.0004501783 -0.0074993884 0.062186453 -0.07638769 -0.022998583 -0.034808837 0.05828764
0.016771685 0.052593812 -0.0656573 0.06329343 -0.03182953 -0.016534597 -0.025158813 0.048562206
-0.019438148 -0.064160645 0.08191995 -0.052159056 -0.08705734 -0.031883705 -0.059842177 -0.036768425
0.03458242 -0.044579785 -0.022870548 -0.002024097 0.015814181 0.04657595 -0.06929746 -0.06605635
0.072478876 0.0043104584 0.0039163167 -0.08836128 0.07928371 0.011284049 0.029722957 -0.079591684
-0.07950077 -0.08338836 -0.08621092 -0.072577 0.06103363 -0.087014966 -0.051082484 -0.06433185
-0.014912874 -0.066083536 -0.03023426 0.07467821 0.034777403 -0.05536478 -0.0030921998 0.06022591
0.057347015 0.019423291 -0.04041054 0.08413035 -0.08427344 -0.084067784 -0.028794253 -0.03733548
0.0075460775 -0.036658436 0.057177436 0.022540467 0.05636959 -0.054318782 0.02519416 0.07089998
0.067895144 0.052692212 0.051881917 0.04780173 0.06399804 0.017829658 -0.054109897 -0.043630432
-0.06221128 -0.07353256 0.071034946 -0.071937695 -0.02942374 0.01547423 -0.08710701 -0.08304688
0.0043295966 0.09034827 0.082326956 0.031794474 0.060157984 0.0011025242 -0.03912967 -0.008783363
0.049303446 -0.04473356 0.01882349 -0.085081235 -0.0052642096 0.00830624 0.0028433057 0.020447513
0.049859643 0.049628492 0.07980329 0.054446984 -0.047536563 0.07702711 0.09130174 -0.0017360522
-0.0046110973 -0.06894171 -0.014495239 0.05194754 0.06991531 -0.01042223 0.061467186 -0.04880381
-0.049559824 0.054574095 -0.07996176 -0.04776087 -0.017549872 0.055345472 0.034123067 -0.05474996
-0.03650912 0.0007977376 0.030140981 0.027430234 -0.025286235 0.06573221 0.062330257 0.012788083
-0.08438798 0.058122877 -0.07327141 0.015944311 0.08667248 0.0078235315 -0.06445954 0.06394833
-0.05414186 -0.025395552 -0.08654723 0.03714131 -0.022072576 -0.057641525 0.053475186 0.054073974
-0.090807684 0.08615329 -0.013582518 -0.05579975 -0.0047987215 -0.028793413 0.023942951 0.0848618
-0.03676506 -0.040008523 -0.05684497 -0.05195671 0.044577375 -0.073430635 -0.048644975 0.025012426
-0.008110292 0.012446575 -0.0712946 0.02168461 -0.06920716 -0.018074125 -0.081829466 0.043537512

fc2.bias f4 [84]
00000000: 3b3b 76bd fdba 013d 4669 a0bd 1399 a1bd
00000010: a460 4e3d b14f 993d 701a 12bd a4b2 5a3c
00000020: 66e7 1abd 95d2 ffbb 91e4 3abd 2d9e 5dbd
00000030: 9a19 e83c 4090 713b 275c c63c c12b 99ba
00000040: 8c88 77bd a395 8c3c 7d60 92bd 31af f8bc
00000050: fe5a da3c e79b d73c ec21 cd3d f950 54bd
00000060: 281a 20bd d604 95bd 23f4 46bd 6e0d 973d
00000070: 9dae 963d 6bf3 1bbd abf9 56bc dee3 503c
00000080: a953 9d3d b4bd a03d 6c53 e03d ddb4 8dbd
00000090: 0ee7 363d 73ea 85bd 87ee 233c 591d 8b3d
000000a0: e5dd 1b3e 9ba0 b73c 30a0 cb3d 5f43 cb3c
000000b0: 25e5 603d 3efe 653d c62c 2cbd 6b1d 983c
000000c0: 1fc2 b43d 1cad 2a3d 7b69 8ebd b6b0 b4bd
000000d0: 1671 2e3d 9bee 883d 0e2a 70bd f92f ca3d
000000e0: 7ecd 803b 780d 593d 761f 73bc c702 e73c
000000f0: 98b3 3ebd af7a f43d c61e deba be41 9d3d
00000100: 8a51 f3bc 79fb 75bd 0e95 61bd 6d7e 88bd
00000110: 5215 c7bc a555 91bd 5e5d d03d 760f b5bd
00000120: 5557 dc3b 1ebb 7abc 70bd ab3d 0d3f c93c
00000130: 9683 a8bd 66b2 89bd 597b 6cbd 29e9 a1bd
00000140: 082b 06bd 9268 9abd cd59 56bd fcc0 ebbc
-0.06011508 0.031672467 -0.07832579 -0.07890525 0.050385132 0.07485903 -0.035669744 0.013348255
-0.037818335 -0.0078070858 -0.045628134 -0.054105926 0.02833252 0.0036859661 0.024213864 -0.0011686013
-0.060432956 0.017161196 -0.0714731 -0.030356975 0.026654717 0.026319457 0.10016236 -0.051835034
-0.039087445 -0.07276313 -0.04857267 0.073756084 0.073575236 -0.03807394 -0.013121049 0.01274964
0.076819725 0.07848683 0.109534115 -0.069192626 0.044653945 -0.06538858 0.0100056 0.06792707
0.15221365 0.02241545 0.09942663 0.024812398 0.05490603 0.056150667 -0.042034887 0.018568715
0.08826088 0.041668996 -0.069537126 -0.088227674 0.042588316 0.066861354 -0.058633856 0.09872431
0.0039307466 0.05299136 -0.014839044 0.028199567 -0.046557993 0.119374625 -0.0016946427 0.07678555
-0.029701967 -0.060054276 -0.05507379 -0.06664739 -0.024302159 -0.070964135 0.101740584 -0.088408396
0.006724278 -0.015303401 0.08385742 0.024566198 -0.08228223 -0.0672348 -0.05773482 -0.079058
-0.03275588 -0.075394765 -0.052331734 -0.028778546

fc3.weight f4 [2, 84]
00000000: 8bd7 7f3d 1849 92bd 8a8d 04bd e432 db3c
00000010: a8ff 793d a568 bf3d c2a8 ba3c 18ee fc3d
00000020: 9c48 adbd f9ca b2bd 8e4d c7bd cbb9 d63d
00000030: 1df1 39bd f89d 533c 735d 2fbb b5ef 15bd
00000040: 326d 5fbd ac95 983c c6ac 593d c4d4 a73e
00000050: 7c2d ac3d dc9f 1a3d 0c55 0fbe 644e 8ebc
00000060: 4bb0 b33d e8fb 9bbc 87ca fb3d f4b0 51be
00000070: 795f e03d b385 7f3e 1bd3 613d d597 0dbe
00000080: a16d 4cbc 5c6f 653b 96e1 92be 94b8 81bd
00000090: a7cc 10be 813d 903d ce83 12be 9ff8 8abd
000000a0: 6895 09be 2aaa 7fbc 4308 46bd b6a9 b23d
000000b0: 9a6a 35be 7e4c b13b 82e8 943d e592 61bd
000000c0: e8c6 8f3c a1b8 c6bd 8448 b9bd 1c43 e43c
000000d0: 51b0 603d 49f0 e23c 4773 263e ea6a 44bd
000000e0: 8fa6 323d 93ca 42be 2207 cc3d 642e ef3c
000000f0: 9d8e 223e 1424 5cbe 0d82 a6bd c562 5fbe
00000100: 594b 583b 46db 403e 7fe9 883d 423c c23d
00000110: e932 b8bd c98d 8abb aef4 42be 8176 87bc
00000120: 65f9 08bd a2bb bfbd 6d3b 32be 2077 aabd
00000130: 34d7 94bd 9039 bc3b 6b12 1a3d 0385 503d
00000140: a962 bf3d 5f49 b03d 19f0 3cbd 5389 413d
00000150: 7270 f63c 2769 2e3b ffe3 ca3d 967a c53d
00000160: f9ef e3bd 1788 83bd 7e8e d83c 2a6c 5dbe
00000170: 781b 103d 2387 40bc 312b f33d ff52 08be
00000180: aaa4 4fbd dcb9 53bd b654 3f3d b396 113d
00000190: 8b3f d9bd 9cf5 e4bc 50b2 c4bd f8a1 80be
000001a0: 4291 abbd f312 7e3d 2e6d b63d e34f d8bd
000001b0: 0c8f d0bc 64bc de3d fba0 e2bd 143d 713e
000001c0: 7e4f 3f3d aef4 6fbe 973f 6ebd 3c7d a7bc
000001d0: b30c 1e3e 6488 1fbe f193 883e cf64 9c3d
000001e0: 957d 363d 6623 2a3d dab4 f03d c045 97bd
000001f0: 92ba 3f3e 6e33 2f3d 0854 e93d 378b 88bd
00000200: 7621 1e3e 2284 b9bd f782 91bd 0145 313e
00000210: 06c6 463b 890c 253c 86b4 1e3d 9b48 bbbd
00000220: 75a9 9a3d 19b0 abbd 3594 68bd d72a 503e
00000230: bd70 4d3d ac98 ff3d 71e4 5cbe 63c7 24bd
00000240: 9e7a 0ebe ae42 7a3e 164a cf3d b05a 243e
00000250: 321b 7ebc 5998 c9bd d148 653d 2fdd bb3d
00000260: 0708 11bc 4008 5bbc 31a2 0c3e 2143 90bd
00000270: e2d5 62bd be6d 413e 9f5a 163e b619 603d
00000280: 204b b5bd 82aa 9dbd 3b1d debd 83b7 6ebd
00000290: 1694 483d 0a0e 90bd ff68 a2bd fcb5 aa3d
0.062461417 -0.07142848 -0.032361545 0.026757665 0.06103483 0.09346131 0.022785548 0.123501
-0.08461115 -0.0873012 -0.09731589 0.10484656 -0.04539596 0.012916081 -0.002675858 -0.036605556
-0.054547496 0.018626057 0.053143285 0.32779515 0.08407113 0.03775011 -0.13997287 -0.017371364
0.087738596 -0.019041017 0.122944884 -0.20477659 0.1095571 0.24953346 0.055132966 -0.1382745
-0.012477309 0.0035009002 -0.28687733 -0.063340336 -0.14140569 0.07042981 -0.14308092 -0.06785702
-0.134359 -0.015604535 -0.048347723 0.08723776 -0.17716447 0.00541073 0.0727091 -0.05507173
0.0175509 -0.09703184 -0.090470344 0.027864031 0.05485565 0.027702468 0.16254912 -0.047953524
0.043615874 -0.19022588 0.09962298 0.029196925 0.15874715 -0.21498138 -0.08130274 -0.21815021
0.0033003895 0.18833646 0.06685161 0.094841495 -0.08994085 -0.004228328 -0.1903865 -0.016536
-0.033440966 -0.0936196 -0.17405482 -0.083235025 -0.07267609 0.0057441667 0.03761522 0.0509081
0.0934499 0.086077444 -0.046127412 0.047250103 0.030082915 0.0026612969 0.09906768 0.09642522
-0.111297555 -0.064224415 0.026435133 -0.21623293 0.035182446 -0.011750969 0.118734725 -0.1331291
-0.050694145 -0.05169092 0.046711646 0.03554411 -0.10607823 -0.027949147 -0.09604323 -0.25123572
-0.08377315 0.06202979 0.08907543 -0.10562112 -0.025458835 0.108757764 -0.11065861 0.23558456
0.04670667 -0.23433182 -0.058166113 -0.020445459 0.15434532 -0.15579373 0.2667537 0.07636415
0.044553358 0.041537665 0.11753245 -0.07386351 0.18723515 0.042773657 0.11392981 -0.06667178
0.15442452 -0.090584055 -0.07105058 0.17311479 0.0030330434 0.010073789 0.03874638 -0.09144708
0.075518526 -0.08383197 -0.056781966 0.20328842 0.050156344 0.12480292 -0.21571518 -0.040229212
-0.13913962 0.24439499 0.10121553 0.1605022 -0.015509414 -0.09843511 0.055977646 0.09173047
-0.0088520115 -0.013368666 0.13733746 -0.07044054 -0.055379756 0.1888952 0.14683007 0.05471202
-0.088522196 -0.076985374 -0.10845419 -0.05828048 0.04896935 -0.07033928 -0.07930183 0.08335492

fc3.bias f4 [2]
00000000: 4da5 bbbd 5b56 023e
-0.09162388 0.12728254
